trained_models/lstm_ultra_aggressive_v1.pth (torch, 214349 bytes, 11 tensors)

lstm.weight_ih_l0 f4 [256, 6]
00000000: 82af 3bbd cd8f bc3d d806 8e3d 3717 b43d
00000010: 5e12 f7bc e775 92bd b9a2 e23d ce8e 3f3d
00000020: 0076 273d cd78 a63d db65 1c3d 2ee1 5d3d
00000030: 05e2 fc3d ad50 1abd b4c5 e7bb 8c53 123d
00000040: 4dc7 e53c 62fb 323b c401 dd3d 4ab9 103e
00000050: 54b4 333d c430 ca3d 5429 043c 2cfa 463d
00000060: 74e4 d4bd 338f 14bd d1e2 783c 4ef7 673d
00000070: 5fee dabd a7ee 1abd cb69 ae3d cfd3 ca3d
00000080: fa71 0d3e 2901 403d 5630 b33d 0b8d f8bc
00000090: 9f0b 673d 5849 49bd 5ef3 cd3c 4450 abbc
000000a0: 8ccb b73d ab6f 9abd d2ac cd3d d188 d63d
000000b0: 32be 5f3c ba1f f63c 7177 c33d cff6 98bc
000000c0: bd90 8cbd 3aa2 60bc 9a73 ebbc 2562 1ebd
000000d0: 4d0d 16bd 9dda bebd 0b6d 783c c677 143a
000000e0: e0ce e93d a3dc 983d 68d7 653c be27 093e
000000f0: 3a87 3cbd 5ae8 96bd cc0d 26bc 09a4 173d
00000100: 2efb 643d c3d0 8abd 66a7 183e 3259 c13d
00000110: cffd c33d cd21 8bbd ec07 99bd 8c29 293d
00000120: b609 e13d 72e8 61ba 937a d83d f6b8 30bd
00000130: e943 6a3c d742 ab3d 2434 e33d a1c9 8f3d
00000140: f449 f23c 128c 143e 63f0 9a3d 7684 6cbd
00000150: 3580 89bd f24c ffbc ebab a53d 2efb 49bd
00000160: 8fa9 813c 7368 b83d 106c 6bbb a78d fd3d
00000170: 4d0e 7b3d 02f0 a53c 4aaf 0d3e b0f8 2a3e
00000180: b449 77bd 422e c43d 749c d73d d4c9 b6bc
00000190: 7eb8 be3d 386e 6b3d 48b9 ccbd e71e 88bd
000001a0: d692 85ba 91a1 c6bc 6c6d 09bc 8dcf e03d
000001b0: 08cb 3ebd 8555 88bd e4bc 2ebc 4997 ad3d
000001c0: 4b2c 0a3e bbdd 193e d178 a4bd fa83 1b3d
000001d0: af34 193d be43 82bd 54b5 c73d 8b30 21bd
000001e0: 3c45 ef3c 7abb 24ba dbf2 0c3d a878 64bd
000001f0: 3854 05bc a8bd 8fbd f849 80bd 57c0 183c
00000200: a5c8 ee3d 5d98 cabc d360 233d 0695 87bd
00000210: 3d7f a23d 1b8d a03d 589e e03d 7ec9 f83b
00000220: 9c00 b4bc c944 1f3e 61f4 bb3d 408e fd3d
00000230: 169c 51bd 24b7 833c 557f b33d c4e0 6a3d
00000240: 2dd6 e4bc 03a5 11bd 2ab8 903d c08c 3bbc
00000250: 4bde 083d 6f65 313d c746 bf3d 0632 33bc
00000260: cd7c ad3d dcd8 7ebd fac9 f83d 27da b73d
00000270: 19d1 3abb 5ad9 88bc 5261 81bd 2c9d a6bb
00000280: c699 613d dba1 fd3d f20d 163e 57ca 653d
00000290: 1602 0c3e 8b2c 91bd 1aef e13d b9de dbbc
000002a0: f5dd 64bd c807 1f3b 0499 db3a fc63 103e
000002b0: 7edd 96bd 1781 723d e6c5 103e 66a8 373d
000002c0: 3407 69bc 739f 153c 33bb 40bd a8fb abbc
000002d0: 2efb 783d ec6c 2bbc b11f 183e 71a4 923d
000002e0: 828f 22bd f97d 423c b51c 0c3e 33a8 203c
000002f0: fb39 253e 1146 573d 333c 043d 70e4 10bd
00000300: 5676 293e 525d 7dbc dc9b 033e b621 b13d
00000310: 8cf0 b7b9 e1bb 1d3e 79f9 2dbd 2b7f df3b
00000320: 0e11 d23d 603f 9fbc 6f44 a43d 16b8 1c3c
00000330: 64b4 7cbd 3753 913d 21fc ca3d 3cb9 bf3d
00000340: 243f a93d 7429 2d3d 42e3 1b3e dd4e 00bd
00000350: 64e5 59bd f07d 383d 28b9 af3d f18f e9bc
00000360: ed40 63bc c645 aa3d ab26 153e 718d 253e
00000370: 17de edbc 77f8 4ebd 1b66 4e3d f319 493d
00000380: 33a6 093d 5689 a63d 8c4a 733d 2c87 f9b9
00000390: 9f68 773d e0d1 c53c b5dd 063e 3e3d 03bc
000003a0: 84a9 4a3d f3bc 983d 08bc 283d 2af6 dabd
000003b0: 8ed4 debc fff5 8c3d 968f 963d ece3 9a3b
000003c0: 883c 2dbd a921 dcbc 46c5 173e c9db 653d
000003d0: 0814 23bd dc7e 123e 0041 fb3c 6e33 113d
000003e0: 5b53 ae3c b5e8 fc3d 8f30 9bbc f387 503d
000003f0: a209 9dbc 85f2 133e 662a 823d 61e5 40bd
-0.045821674 0.09207115 0.06934899 0.087934904 -0.030160125 -0.07151394 0.11066193 0.04676705
0.040884018 0.0812851 0.038183074 0.054169826 0.12347797 -0.037674595 -0.0070731286 0.035724208
0.028049136 0.002731048 0.107913524 0.14133182 0.043873146 0.098725826 0.008066494 0.048578426
-0.103951365 -0.036269378 0.015190796 0.056632333 -0.10689997 -0.037825253 0.08516272 0.099036805
0.1381301 0.046876106 0.08749454 -0.030340692 0.056407567 -0.04914221 0.02514046 -0.020912297
0.0897437 -0.0754083 0.100427285 0.104753144 0.013656186 0.030044425 0.09544266 -0.018672375
-0.06863544 -0.013710553 -0.028741647 -0.038667817 -0.03663378 -0.09319041 0.015162717 0.00056635996
0.114164114 0.07463958 0.014028408 0.13394067 -0.0460274 -0.07368536 -0.010135125 0.03702167
0.055903606 -0.067780994 0.14907607 0.09440841 0.095698945 -0.06793556 -0.07472214 0.041299388
0.1098818 -0.0008617706 0.10570254 -0.043145142 0.014298418 0.08362358 0.110939294 0.070208795
0.02957628 0.14506558 0.075653814 -0.057743512 -0.06713907 -0.03116462 0.080894314 -0.04931181
0.015827922 0.09004297 -0.0035922565 0.12380534 0.061292935 0.020256046 0.13836399 0.16696429
-0.060373023 0.095791355 0.10527888 -0.022313036 0.09312533 0.05747816 -0.09996277 -0.06646519
-0.0010190855 -0.024246963 -0.008387905 0.10977087 -0.046580344 -0.066569366 -0.010665152 0.08476121
0.13493459 0.1502599 -0.080308564 0.03796766 0.03740376 -0.06360577 0.097513825 -0.039352935
0.029207818 -0.00062840397 0.034411293 -0.05577913 -0.008137755 -0.07018596 -0.062641084 0.009323201
0.11659364 -0.024730856 0.03988726 -0.06620221 0.07934425 0.07839414 0.10967702 0.007592379
-0.021972947 0.15553583 0.09177471 0.12380648 -0.051174246 0.01607854 0.08764521 0.05734326
-0.027934158 -0.035557758 0.070663765 -0.011447132 0.03341512 0.043309625 0.093396716 -0.0109372195
0.084710695 -0.062218532 0.12147899 0.08977156 -0.002850598 -0.016705204 -0.063173905 -0.0050846543
0.05507829 0.12384387 0.14653757 0.05610117 0.1367267 -0.07088574 0.11031933 -0.0268396
-0.055875737 0.0024266113 0.0016753976 0.14100641 -0.07366465 0.05920514 0.14137992 0.04483833
-0.014222909 0.009132254 -0.047053527 -0.020994022 0.06078642 -0.010462981 0.1485584 0.07160271
-0.03968764 0.0118708545 0.13682826 0.009805727 0.16135399 0.052557055 0.032283973 -0.035374105
0.16549048 -0.015464144 0.12852424 0.08649008 -0.000350837 0.15403701 -0.042474244 0.0068205795
0.10257159 -0.0194394 0.08020865 0.009565374 -0.06169547 0.0709595 0.09911371 0.093615025
0.08263996 0.04227586 0.1522341 -0.03132521 -0.05319728 0.04504198 0.085802376 -0.02851102
-0.01387046 0.083140895 0.14565532 0.16167237 -0.029036565 -0.050529923 0.050390344 0.049097013
0.033605766 0.081316635 0.059397265 -0.00047593692 0.06040251 0.024147928 0.13170512 -0.008010207
0.04947807 0.07457914 0.041194946 -0.10691483 -0.027200963 0.068828575 0.073516056 0.0047268774
-0.042294055 -0.02687152 0.14821348 0.056117807 -0.039814025 0.14306206 0.030670643 0.035449438
0.021279981 0.12349073 -0.018944053 0.0509109 -0.019169632 0.14447983 0.06355743 -0.047093753

lstm.weight_hh_l0 f4 [256, 64]
00000000: 70a9 26be 3424 e8bd 0e38 d5bd 435c 02be
00000010: ec60 f1ba cb3e 5a3c 5e6a 64bc 49ea bf3c
00000020: ea28 56bd 9afc 243d e105 15bd 6242 0a3e
00000030: 64a7 90bc fbdd 313d 63e4 273e a766 1bbe
00000040: 06a4 333c 9936 c53c d4ff a0bc e8ad 8ebd
00000050: df6f 3b3a 96ef 28bd 9db3 13be ec78 c33c
00000060: 006d a73d 6bb7 003d d10a 963d 93d3 5b3d
00000070: 3fc9 ea3c b152 b93d 9977 953a 11b1 ecbd
00000080: d8bb f73d 3fba c0bc a291 a23b 4614 22bc
00000090: a5eb 3ebd c3b4 d83a 08fe 063e f77c a33d
000000a0: 9fcf 903c 5738 52bc c320 873d 5ccd 65bd
000000b0: 7096 acbb dc4f 583d 7d56 26be b5d4 b3bd
000000c0: 9410 ef3c e364 6fbd a92c dfbd 925a 89bd
000000d0: 36be 9fbc 19fd 84bd e904 4b3d 296b 6bbc
000000e0: 10f0 96bb 956f f8bd 09b3 ba3d 76e0 d2bc
000000f0: 3af7 ecbc 6e9e 623d 47e8 a83c 609f 47bd
00000100: a758 cabd ce11 41bd b27b b6bd f4a4 94bd
00000110: 9c6a b43c 0755 113d 522c 4d3d 3e51 643b
00000120: 5528 79bd 408c 01bd b7a4 b8b9 c957 d03d
00000130: 66cb dfbd 5db1 19be e4b3 38bd 673e 7cbd
00000140: 8f12 853c 3889 95bd b497 e23d 93d2 eabd
00000150: eb4d b03c 9a46 433d 8da0 67bd 8bb6 bf3d
00000160: d492 2c3d 445d 52bc 1b83 b73d 6875 093d
00000170: 4bf8 08be d2a2 403d 0acb a63c db84 58bd
00000180: 0c95 f43d 503d 6c3d c66d 86bd b642 923d
00000190: b88d 073d 2b1d 81bc 2f21 c13c 2003 bb3c
000001a0: c380 0cbe 38e1 103e 59d6 843d 15eb 193c
000001b0: 8023 94bc c2b4 01bd 95c1 11be 4d67 74bd
000001c0: bdb8 5cbd 3c42 c6bb ff54 f3bd cc40 d03d
000001d0: b018 3b3c ae9f 9dbd 0d58 c13c 08c9 ffbc
000001e0: 5eab c33d 42dc 6abc 6f4d db3c a9e7 cdbd
000001f0: 25b6 2d3d bd40 3dbd 5666 bb3b d6fe 2a3d
00000200: cb7a 97bd 862f fabd 760e c1bc d4cf 273c
00000210: 0ddc 933c 0a4d c63c a88a acbd a9b7 4b3d
00000220: 02cd c43d eb0a 8a3c 60db e33d 96c5 2d3c
00000230: 9e8f 2c3d 89af 543d 6a7a 80bd 73c4 04be
00000240: 1bd1 f8bc c432 5fbd 4a82 8dbc 1781 1abd
00000250: 3b7a 013e db50 823d 036f c4bd b0bc 7b3d
00000260: 096e a73c 6495 f23c 5a88 403d cf61 ffbd
00000270: 74e4 803b 3d1a 6c3d 1cc6 d33d 4468 fabd
00000280: a20f ed3d 521b 7fbd 2b3f 56ba bae1 3b3d
00000290: 8f68 9ebd 23d9 4ebd 4e1d bc3c 1346 acbc
000002a0: d565 a6bd c706 323d e37b c93d 98f6 763d
000002b0: 4cb6 a4bc 2459 bdbd 4de7 d5bd 8f41 a23c
000002c0: 704e 1fbd c707 e1bd 45ea afbc 740b af3d
000002d0: 5332 0bbd 3978 21bd 9d30 b13b bb8b 8abd
000002e0: ff70 19bd cb18 693d 253b b93d ef2a 973d
000002f0: 947e b83d cc71 1f3d 873c de3d 34ed 56bb
00000300: 3a71 e9bd 4311 03be 7dda 8a3d 57c6 03be
00000310: ff0a d13c 20d3 43bd 4cb7 53bc 35ad 3a3d
00000320: d3e2 1ebc 15d6 f0bc 1a86 44bd c3ec c13d
00000330: 637b 95bd 1dc0 e5bd 7cad c53d add1 0fbc
00000340: f512 bdbc ae35 a3bd bdfb 27bd c933 393d
00000350: 56ae 993d 77bf 0ebe 2686 f9bd 9cc3 0dbd
00000360: 6cb1 23bd 945e 8dbd 3454 053d 4dd9 14bb
00000370: be61 3bbd ca09 f93d ee30 133e a7e8 4a3c
00000380: 7179 ff3d ed4d 103d 3144 f13c d244 543d
00000390: f3d4 67bd 82bd 3dbd dc25 86bc 9b1d 2b3c
000003a0: 9332 2abd 0ce6 023e 702b f83d f7e9 8d3d
000003b0: a125 00be c8ab 94bd 6a0c 05be 0ac0 9fbd
000003c0: a313 353c fda8 d1bd f652 33bd b558 60bd
000003d0: eeb4 973b f957 dabd 0b1b d13d ee6f 2a3d
000003e0: f8e1 57bd 0919 d0bd 6817 4c3d 1529 2c3d
000003f0: a380 dd3d a613 21be a705 043e 7bd0 7c3d
-0.16275573 -0.1133503 -0.10411082 -0.12730508 -0.0018415726 0.013320635 -0.013941376 0.023427146
-0.052285112 0.040279962 -0.03638256 0.13501886 -0.017657943 0.043424588 0.16395716 -0.15175878
0.010964399 0.024073886 -0.019653238 -0.06966764 0.0007150154 -0.041244112 -0.14423986 0.023861371
0.08175087 0.03142492 0.07326282 0.05366857 0.028660415 0.09048975 0.0011403441 -0.1155721
0.12096375 -0.023526309 0.0049612084 -0.009892529 -0.046611447 0.0016533363 0.13182843 0.079828195
0.017677126 -0.012830815 0.06598046 -0.05610405 -0.005266957 0.052810535 -0.1624393 -0.08780805
0.02918271 -0.058445822 -0.1089719 -0.06706728 -0.01949988 -0.06493587 0.04956523 -0.014368811
-0.0046062544 -0.121306576 0.091161795 -0.025741797 -0.02892648 0.05532687 0.020618571 -0.048735976
-0.0988019 -0.04713612 -0.08910312 -0.07258025 0.022023492 0.03548148 0.050091095 0.0034838463
-0.06082948 -0.031627893 -0.00035217937 0.10172994 -0.10927467 -0.15009065 -0.045093432 -0.06158295
0.016244201 -0.07301563 0.11064091 -0.11465945 0.02152153 0.047674753 -0.056549598 0.09360989
0.042132214 -0.012839619 0.08960553 0.033559233 -0.13375966 0.047030278 0.020360488 -0.052861076
0.11942491 0.05767566 -0.06563906 0.0714163 0.033094138 -0.015760979 0.023575393 0.022828639
-0.13720994 0.14148414 0.06486196 0.009394427 -0.018083334 -0.031666525 -0.14234002 -0.059668828
-0.053887118 -0.006050376 -0.11881446 0.10168609 0.01141946 -0.07696472 0.023601556 -0.031223789
0.0955417 -0.01433474 0.026770322 -0.10053951 0.042410035 -0.046204317 0.0057189865 0.041746937
-0.07396468 -0.122160956 -0.023566466 0.010242421 0.018049264 0.024206657 -0.08424884 0.0497357
0.09609415 0.01685091 0.11125827 0.01060619 0.04212915 0.051925216 -0.06273349 -0.12965564
-0.030373147 -0.054491773 -0.01727404 -0.037720766 0.12644283 0.06363078 -0.09591486 0.061459243
0.020438211 0.02961225 0.047005035 -0.124698274 0.0039334837 0.05764221 0.10340521 -0.12226918
0.11575247 -0.062281914 -0.0008172865 0.045869567 -0.07734787 -0.050500046 0.022963192 -0.021029508
-0.08124892 0.043463495 0.09838083 0.060293764 -0.020106457 -0.09245518 -0.10444508 0.019806651
-0.038893163 -0.109878115 -0.021474013 0.085471064 -0.03398354 -0.039421294 0.0054074065 -0.06764933
-0.037461277 0.05690841 0.09044484 0.07381236 0.09008518 0.038926885 0.108513884 -0.0032795193
-0.113985494 -0.12799554 0.067799546 -0.1286863 0.025517939 -0.047808766 -0.012922119 0.04557534
-0.009697634 -0.029398957 -0.04797945 0.09468987 -0.07298925 -0.11218283 0.0965223 -0.008778018
-0.023080328 -0.07969223 -0.04101156 0.0452154 0.07503955 -0.13940226 -0.1218379 -0.034610376
-0.039964125 -0.06902805 0.032551005 -0.002271253 -0.04574751 0.1216007 0.14374134 0.01238457
0.12474335 0.035230566 0.029451462 0.051823445 -0.05659957 -0.046323307 -0.016375475 0.01044407
-0.041552138 0.12783068 0.1211766 0.06929391 -0.12514354 -0.07259327 -0.12993017 -0.078003004
0.011052045 -0.1023731 -0.04378029 -0.054772098 0.004629723 -0.10661311 0.10210236 0.04161065
-0.052705735 -0.10161025 0.04982701 0.042031366 0.10815551 -0.15730152 0.12892781 0.06172226

lstm.bias_ih_l0 f4 [256]
00000000: f7d6 88bd cc28 293e 3328 ff3d 7258 c03d
00000010: 81a6 b6bb 1278 77bd d5ca fa3d b317 a03d
00000020: 5292 1d3d 86d9 87bd be45 0abd 88f4 473d
00000030: 9510 82bd 86a4 85bd 8652 dabc a3a9 863d
00000040: 7d61 83bd 662a 11bd 38c2 df3d c0bd 8abd
00000050: f023 0cbd 3aca dd3d 8baf 8abd d7ec a6bd
00000060: 2332 8fbd 92e2 3d3d 2744 4fbb 7811 7d3d
00000070: f2f2 d93c e16c 9bbd 9e94 46bd 7efb 40bd
00000080: 1c5e 4e3d ea3e bd39 7ab5 893d b305 9fbb
00000090: a5da 923d 5ca0 69bd ed67 ee3d 56ea bebd
000000a0: 1d18 f23d 922b b4bc 4f8e 823c acf0 c43d
000000b0: 2e51 083e 7688 433d 42ca 8cbd 08bc cc3c
000000c0: e006 1dbd bb5a ce3d 68b1 103e c963 1e3d
000000d0: 12c6 ed3d fb13 6f3d 79bf 1ebd 2ee4 013d
000000e0: fce4 1fbc e2fe 4bbd c275 7abd 70b4 fabc
000000f0: 6681 253e f279 163e d740 0e3e 803d de3d
00000100: 3752 5d3d 7bb1 103d 5e56 bbbd e5bb a33d
00000110: c0df de3d 21ee 103e ab04 bd3d adf8 bfbb
00000120: 23b8 5e3d 8ec4 9bbd 8c83 6dbd dd3e c93b
00000130: b92e 143e df11 77bd fe28 71bd 5fa3 1c3e
00000140: 2c44 e63d 2757 bd3d 73b0 b63c d554 c93d
00000150: f73e 9a3d d0ee 703d 30d3 523d d7ff 883d
00000160: b172 12bd e44e eebc a44a f23d 4175 f9b9
00000170: 8503 b13d 2ce6 8dbc 1725 b13d 0cd3 083d
00000180: c66e 31bd b37b 89bd b25d 09bc cbb9 9a3c
00000190: d9da c33d 89e8 4a3d e8e8 f43d e69a cfbc
000001a0: fbdc 1b3e 0cdd edbc d5ec c23d 14b7 543d
000001b0: 0d39 a23d d898 f63c eebb 103e 8ebe dd3c
000001c0: ca5b c8bc f4d3 df3d cd97 fe3c f0a0 e53d
000001d0: a452 ce3d 628e 373c 6a6f c73c 5d8e 88bc
000001e0: f614 e2bd fd78 d4bc d3bc aebc be5b bd3d
000001f0: 1486 48bd 84d5 d03d 5ae1 7d3d ab35 88bc
00000200: 6b2a 0dbe d556 63bd 7902 953c 23dc 0dbe
00000210: 8db3 bd3c 4a16 f5bb 0951 813c 280e f5bd
00000220: 65fb c0bd ed32 213e 8f59 81bd 0575 753d
00000230: a98f 343c 194f 17be ee00 883d 73e9 05be
00000240: 0a7c f7bd efef c3bc 8710 213e 8e44 95bd
00000250: 0a2f 5a3d be12 b1bd a916 97bd 43ef f63d
00000260: 4a00 153e 4baa 63bd 2f9b 1f3e f8ba 21be
00000270: e189 bebd 4aa3 aa3d 57cb 18bd 2949 573c
00000280: 0f55 86bd c935 11be 9db4 37bd 775d 4a3d
00000290: b7f1 f03d 1425 87bd 5534 80bb cc88 a7bb
000002a0: 1ad1 44bd 30c7 71bd 9c46 173e 1d0b bebb
000002b0: 738b 85bd ab37 6cbc 373f ccbd 7d57 913d
000002c0: c946 a03d d860 03be e2a6 7e3d 51cb 3d3d
000002d0: d6a4 0e3e c0af 30bd d031 1bbd d03f a9bd
000002e0: e781 9abd a3c0 283d aaf6 873d 8cfd 00be
000002f0: 4037 db3c 5377 24be d3d2 b43d f7c7 be3d
00000300: 2a86 f83d 74e8 173d ad34 8fbd c60f 7f3c
00000310: 55e1 683c e1bf f33d c36c 323d 83c6 f83d
00000320: 49a5 c1bd 12e1 063e 3362 163e ff53 863b
00000330: 94f6 b33d c6db bc3c 869a af3d 8e8f 3d3d
00000340: 28d4 983d f46c 673d a38f 27bd 34a0 96bc
00000350: 42bd 8a3c 4426 923d cd23 913b c650 2d3d
00000360: 42b4 223d 892a 0f3d 9b96 e93c fdb8 0a3e
00000370: 8167 aa3d 841c 093e 9853 1a3d 90e7 88bd
00000380: e565 c13d 5161 e63c ff8a e5bc 06b4 b33d
00000390: 179d 1ebc 8fdf 0a3e ffd2 b2bc 1c3e 293d
000003a0: 045b 223e 6dfc 86bd 44d5 163e 9707 423d
000003b0: eeb4 ac3d afdf 033e 8329 4ebd 5ea8 073e
000003c0: 119c 9c3c 2c52 073d 70bf d03d 13c5 803d
000003d0: 70ab 5abd a419 d53c 9292 f93d 79dc 95bb
000003e0: 388d adbd 5d01 c33d 208a 0f3e 5911 db3d
000003f0: a847 593d 604e 203d e422 eabc 01ed 203e
-0.06681626 0.16519469 0.12458839 0.093918696 -0.005574048 -0.060417242 0.122457184 0.0781702
0.03846962 -0.06633286 -0.033757918 0.048817188 -0.06350819 -0.06525521 -0.026650678 0.065753244
-0.06415079 -0.035440825 0.10925716 -0.06774473 -0.03421396 0.10829587 -0.067717634 -0.08150642
-0.06991985 0.046358652 -0.0031626315 0.061784238 0.026605103 -0.075891264 -0.048481576 -0.04711484
0.05038272 0.00036095764 0.06724067 -0.0048529743 0.071706094 -0.057037696 0.11640916 -0.0932204
0.118210055 -0.021993432 0.015936999 0.09616217 0.13312218 0.04773756 -0.06874515 0.024992004
-0.038336635 0.10075899 0.14130175 0.03866938 0.116100445 0.058368664 -0.03875682 0.03171175
-0.009759184 -0.049803622 -0.06114746 -0.030603617 0.16162643 0.14694956 0.13891922 0.10851574
0.054033484 0.03532551 -0.091473326 0.079948224 0.10882521 0.14153339 0.09229406 -0.005858502
0.054374825 -0.07605849 -0.05798678 0.006141527 0.14470948 -0.060319778 -0.058876984 0.15296696
0.112434715 0.092451386 0.022300934 0.098306336 0.07531541 0.0588215 0.051470935 0.066894226
-0.03575391 -0.029090352 0.11830643 -0.00047580342 0.086432494 -0.017321669 0.086496525 0.033404395
-0.043318532 -0.06713047 -0.008384155 0.018887421 0.09563226 0.04953817 0.11958486 -0.025342416
0.15221016 -0.029036067 0.095178284 0.05193241 0.07921038 0.030102178 0.1413419 0.027068403
-0.024457831 0.10929099 0.031078244 0.11212337 0.10074356 0.01120338 0.024345119 -0.016669447
-0.11039154 -0.025936598 -0.021330273 0.09246014 -0.048955992 0.10196975 0.06198249 -0.016627153
-0.13785712 -0.05550273 0.018189656 -0.13853507 0.023156906 -0.0074794637 0.01578571 -0.11965591
-0.0942295 0.15742083 -0.0631591 0.05992605 0.011020579 -0.14776267 0.06640802 -0.13077335
-0.120842054 -0.02391812 0.15728961 -0.072884664 0.053267516 -0.08646153 -0.07377369 0.12057354
0.14550892 -0.055582326 0.15586542 -0.15793979 -0.09303642 0.08331926 -0.037303295 0.013140001
-0.065591924 -0.14180674 -0.04484998 0.04940554 0.117648534 -0.06598869 -0.0039124885 -0.005112743
-0.048050977 -0.05902785 0.14773029 -0.0057996647 -0.065207385 -0.014417569 -0.09972995 0.07096765
0.07826001 -0.12829912 0.06217087 0.046336476 0.13930067 -0.04313636 -0.0378893 -0.082641244
-0.07544308 0.041199338 0.06638844 -0.1259672 0.026759744 -0.16061144 0.08829274 0.09315484
0.12134965 0.03708692 -0.06992469 0.0155677255 0.01421388 0.11901832 0.043560755 0.12147238
-0.09455354 0.13171795 0.14685898 0.0040993686 0.087872654 0.023054015 0.08574395 0.046279483
0.074623406 0.05650039 -0.040908467 -0.018386938 0.016935948 0.07136205 0.0044293166 0.04231336
0.03972269 0.034952674 0.028514197 0.1354713 0.08320523 0.13389784 0.037677377 -0.06684792
0.09443263 0.028122576 -0.02802038 0.08774571 -0.009681008 0.13561843 -0.021829126 0.041318998
0.15855032 -0.06591115 0.14729792 0.04737052 0.08432947 0.12878297 -0.050332557 0.1324782
0.019117387 0.03303735 0.10192764 0.06287589 -0.05338615 0.026013203 0.12186159 -0.0045734015
-0.08474201 0.095217444 0.14017534 0.10696668 0.053046852 0.039137244 -0.02858109 0.1571541

lstm.bias_hh_l0 f4 [256]
00000000: d3ce 3c3d 1f5e 89bd 4059 66bb 8559 e13d
00000010: 42d6 58bd bc6a 663d 6549 fd3c b2cb 713c
00000020: 0d36 8b3d 61f3 093e 01b1 c03d f694 c43d
00000030: 7b25 ee3d 6090 80bd a9a3 cbbc 3cfa e23d
00000040: 17d3 183d 1cd9 d1bc 3b11 3abd 4348 923d
00000050: 2e25 073e 12ab e23d 2269 f2bb 9dc7 5fbd
00000060: 9799 41bd a899 18bc ca61 3c3d ee3c aebc
00000070: 5ecf 7abc 027c 153e 72c7 ce3d e052 3dbd
00000080: f891 b23d f808 4b3d f5eb 0f3e 2826 5e3d
00000090: 992e 8bbd 3e7d 3b3d 15ae 993d 512c 9dbd
000000a0: d421 e43d 46de 203e 386d d63d d9c6 fb3d
000000b0: f082 7b3d 8415 f93d 28b3 833d a21a 843d
000000c0: 0dac e73d 0a8f ec3d 924f 273e f3b6 9bbd
000000d0: 4b80 523d 2d45 e5bc 05b0 37bd d2e2 f83c
000000e0: aa18 4c3c 2784 4b3d 69f4 98bd 5192 653c
000000f0: cbe3 133e 01b7 db3c 7fce 0d3e 1987 5bbd
00000100: 7c3f 8ebd 7d73 e93d 4986 babc 0345 d5b9
00000110: 1c5d 4f3d cbd0 0cbd cdca 273e 673e 553d
00000120: b76b c73d 4d81 71bd 52f2 323d b33a fe3d
00000130: 443e a23d e6bb 91bd a3f0 783c 5ada b0bb
00000140: db71 5bbd 3d54 52bd a06f 103e 3a8c d53d
00000150: cb2d d0bb a3a5 9ebc 9f78 2b3e cf40 083e
00000160: 7a7e 46bd 4394 033c 70da 673c 868b e1bc
00000170: 8971 703c ed92 123b d435 c8bc 35f2 dd3d
00000180: d2d6 d83d b8c7 9f3d 20cd 97bd 9f93 3ebd
00000190: 8cf9 0e3e 3495 133c 660f 27bd 4105 ba3d
000001a0: 08e1 023e b3f2 0ebd b962 043e 0959 e63d
000001b0: 0395 34bc bb68 92bd 3b17 083d cd68 1b3e
000001c0: e1c6 ab3c 5f52 65bd a263 21bd a264 b83d
000001d0: b549 a0bc 9716 983d aeae f23d 367a 773a
000001e0: 9306 67bc efa7 ee3d 2a15 773d a26e 863d
000001f0: fd64 a23d e67f 1a3e dd15 b93c dec7 113e
00000200: d69c 22be c6e4 f0bc b17b 14be ac75 a9bd
00000210: 750c bebd 8db4 cd3d 3934 04bd 4a85 cbbd
00000220: 47a5 34bc 9cff 753d fb7c 293e 5837 6e3d
00000230: c563 96ba 1414 04be d93f d63d f3dd 98bd
00000240: 07e0 553d 7fa8 0abe cb1e a93d 0a49 6a3c
00000250: 35ee 363d a0cf acbd b91b 753d f07c 813d
00000260: ecf8 0d3e 9095 36bd 3626 ad3d 27b1 50bd
00000270: 427e 09be bcef acbc e627 263e 2aad 84bd
00000280: 0f69 eb3d e257 e8bc 61bb bcbc e7fa cd3d
00000290: 5d89 c93c cb06 6b3d 7026 85bd 2373 f33d
000002a0: ba7c 1f3c 6a72 703d 6740 0d3e efd3 d33d
000002b0: e4b2 27be 5e3c ebbd bf76 fdbd 4ec0 b3bd
000002c0: 0010 12be d985 bcbd 0108 20be 89e3 b6bc
000002d0: 9a8b 0d3e 9b67 04be 8748 c83d 907c 10bd
000002e0: 0fd9 6b3d 2d7d abbd c2fe aabd efba 23bd
000002f0: c608 023e 908e 22be c322 fa3d 0c1a 213d
00000300: 4638 90bd b369 2e3e 055e 93bb 7eaf 103e
00000310: beb9 54bd 91a2 57bd fcc6 7cbc 7c28 fc3c
00000320: 527b 943d bc20 a1bd 09fb cd3d 11cc 313e
00000330: 3b85 293e 085c 183e 2d23 a3bc 7d89 67bd
00000340: 5d06 393b 31c9 c93d e9dd 0d3e 53ee 113e
00000350: 95b6 cf3d 8c11 59bd b978 f93d 48a9 c43d
00000360: 2a52 113d 5872 1abd 6cfe 3f3a 2ee8 0abd
00000370: e636 003d 6d48 5d3d 8cd8 c93d 4b18 853d
00000380: 0f9a bd3d 1847 c33d b3bd d73d da36 203d
00000390: 8dab 1f3d bd26 c53d c6e7 a0bd 67a5 95bc
000003a0: 59cb 743d d77d 12bc 936d 213b 3cd0 d53d
000003b0: 704f 093c 531f b33d be40 be3c c1a9 c73d
000003c0: 8699 52bd e037 193e c34e e93b 4f89 6c3d
000003d0: 17bd 0b3e 72f8 cf3d 632a ff3d ad97 25ba
000003e0: 87a2 9f3d e3c3 f53d 6943 7dbc be53 ef3d
000003f0: 8cd5 aa3d a829 c03c 71aa 03bc c7d9 0c3e
0.04609568 -0.06707405 -0.0035148412 0.110034026 -0.052938707 0.056254134 0.030918786 0.014758037
0.06797419 0.13471748 0.09408761 0.095987245 0.116282426 -0.06277537 -0.024858313 0.11082885
0.037310686 -0.025616221 -0.04542659 0.07142689 0.13197777 0.11067785 -0.0073977867 -0.054633725
-0.047265615 -0.009313978 0.045991696 -0.021269288 -0.015308229 0.14598086 0.10096635 -0.046221614
0.087192476 0.0495691 0.14054854 0.054235607 -0.06795997 0.045773737 0.07503907 -0.07674468
0.11139265 0.1570979 0.104700506 0.122937866 0.06140417 0.12162307 0.06430656 0.06450392
0.11312113 0.1155072 0.16338947 -0.07603254 0.05139188 -0.027987087 -0.0448456 0.030381594
0.012457052 0.049686577 -0.074684925 0.014011935 0.14442365 0.026820662 0.13848303 -0.053595636
-0.069457024 0.11398981 -0.02276911 -0.00040677944 0.050625905 -0.034378808 0.16385956 0.052061465
0.09737342 -0.0589612 0.043688126 0.1241354 0.079220325 -0.07115917 0.015194091 -0.0053971233
-0.053575378 -0.051349867 0.14105082 0.10427137 -0.006353115 -0.019366091 0.16745232 0.13305973
-0.04846046 0.008030954 0.014151201 -0.02753235 0.014675506 0.0022365407 -0.02443973 0.10837213
0.10587849 0.07801765 -0.07412171 -0.0465275 0.13962382 0.009007741 -0.04078617 0.09083033
0.12781155 -0.034899425 0.12928285 0.11247451 -0.011021855 -0.07148882 0.03322528 0.15176697
0.020968856 -0.05598676 -0.039401658 0.09003569 -0.019566396 0.07426184 0.11849724 0.0009440513
-0.0141006885 0.116531245 0.060322918 0.0656407 0.07929418 0.15087852 0.022593433 0.142364
-0.1588014 -0.029405963 -0.1450031 -0.08274397 -0.0927972 0.10044203 -0.032276366 -0.09937532
-0.011025733 0.06005822 0.16551583 0.05815825 -0.0011473825 -0.12898284 0.10461397 -0.074642085
0.052215602 -0.13540839 0.082578264 0.01429964 0.044660766 -0.08438039 0.05984089 0.06322658
0.13864487 -0.044576228 0.08454554 -0.050950196 -0.1342707 -0.021110408 0.16226158 -0.06478341
0.11494648 -0.028362218 -0.023038568 0.100576214 0.024601633 0.057379525 -0.06501472 0.11887195
0.009734327 0.058702864 0.13794099 0.103431575 -0.16376835 -0.114861235 -0.12376165 -0.087769136
-0.14263916 -0.09205217 -0.15628053 -0.022325294 0.13822785 -0.12930147 0.097794585 -0.035275042
0.05758005 -0.08373485 -0.083493724 -0.039973196 0.1269866 -0.15874696 0.122136615 0.03933148
-0.07041983 0.17032509 -0.004497292 0.14129445 -0.05193495 -0.05264527 -0.015428301 0.030781023
0.07250084 -0.07867572 0.10057647 0.17363001 0.1655473 0.14878857 -0.019914234 -0.056527603
0.0028232553 0.09852827 0.13854183 0.1425107 0.10142247 -0.05299525 0.12181229 0.096026
0.03547875 -0.037706703 0.00073239836 -0.03391283 0.031302355 0.05402415 0.09855756 0.06498774
0.092579 0.095350444 0.10534229 0.03911481 0.038981963 0.09626529 -0.07856707 -0.018267347
0.05976424 -0.008941135 0.0024631962 0.10440108 0.008380756 0.08746209 0.02322423 0.09749175
-0.051415943 0.14962721 0.007119985 0.057748135 0.13646351 0.10154809 0.124592565 -0.0006316852
0.077946715 0.12000253 -0.015457966 0.116858944 0.08341512 0.023457363 -0.008036242 0.1375495

lstm.weight_ih_l1 f4 [256, 64]
00000000: 6ece 34bc 2881 9ebc 250a 4b3d c4b3 13be
00000010: 4463 e13c bd98 b73d 47c4 853d e0bf d8bb
00000020: c0b9 9dbc 624c b0bc d176 253d df2b adbc
00000030: c00e 3cbd f931 333c 6223 6dbd 2dbe 00bd
00000040: f829 f8bc b1d5 05be 48c2 ae3d 4a7c 473d
00000050: ef3e ad3d 8a2d f83c 807c 5bbd 31f5 843c
00000060: 19b0 fe3d a5a7 9abc b759 9c3d 123e a2bd
00000070: 18b1 96bc 6b97 fa3d f5af 8d3d 870c 4a3d
00000080: 6b4d 8a3d 8b42 0dbe 6018 05be 3e14 5fbd
00000090: 50a2 07bc ab28 87bd 9c26 223d 8fb3 553d
000000a0: 66f7 2fbb 1981 923d dd25 6c3d e3ba f63d
000000b0: 80aa f03c dfaa d7bc 7d5d 48bd ec69 fb3c
000000c0: d479 98bd ea75 b8bd ce6c 0ebe f456 5fbd
000000d0: 6fab 7abd d809 733d a252 e03d 1eec 2bbc
000000e0: c362 21bd 4891 b1bc 93fe 00bd 1175 223d
000000f0: a2b9 a33d 0eb7 1cbe 3724 55bd 7385 cbbc
00000100: ac29 113c adae 42bd d4c1 603c 6934 b9bd
00000110: 3b99 203d 8ccc 143c fccc f13b 19a3 f3bd
00000120: 9003 c4bd 2c7e 0a3c 8ed5 75bd 148e 933c
00000130: 3924 81bc cfcc 19bd a8e2 e6bc c5f1 56bd
00000140: 7220 ad3a b434 223d 3ad2 523d 514a 8abd
00000150: 75bb 5f3c d9bd 17be d4c1 db3c 6acb 59bd
00000160: 9c8b ef3d 8978 4b3d acfe 5ebd d2ac 22be
00000170: 4310 8f3d c528 78bd 0704 27bd ffff 823d
00000180: cf1f a73d 4f63 34bd 69f1 efbd 6c70 283e
00000190: 3fa4 d0bc 0e84 07be 5a43 51bc ae75 b23d
000001a0: 831f 833d 5dd4 063e 47c8 613d 078a 0e3e
000001b0: fadf 04be c24c ddbd 840f 53bd 663b b9bc
000001c0: 9ff9 97bc c869 d6ba 8e3e 26bd ef01 0abc
000001d0: 21c9 a33d a7ad 15be b9a7 e63d bd8a 19be
000001e0: f349 84bd 065b 853d 9b73 ac3d 19ae 4dbd
000001f0: 8ddc 113e d9d8 c6bd 1c1d a63d 5b69 09bd
00000200: f5bd e2bd 611c 12be d904 79bd 8219 f4bd
00000210: 699b 9d3a 13ed 0e3e 29fd 09be af41 14be
00000220: 5306 113d fd2a f53d ec35 343d 706d 043e
00000230: 0e2f 663d a31e 2a3d 448e 393d e2fc 8e3c
00000240: 0b1f 803d 3ce9 923b f172 5ebd 97bf 8a3c
00000250: 74f7 003e 3f6e e3bd 8b00 d2bd aa97 7fbd
00000260: fa9d c83d 26ab 7d3c 54d4 1f3c 50fe 053d
00000270: 1d7d d0bc 701b 853d a37c 82bc 0115 11be
00000280: e946 d83d 6d0e 773d a02c 89bd f106 85bd
00000290: 9178 d03d 8c29 a73c f095 033e dcc1 29bb
000002a0: 08ea 0f3d ae24 44bd d8ae 0dbd f42f fd3d
000002b0: b6bb 97bc b44e 18be 45cc ccbc a219 23bd
000002c0: 4212 9bbd f751 cdbd c911 fdbd b65e 88bd
000002d0: 366d b93d 4fff 4f3c 0827 d83b 4d89 583c
000002e0: 8f4f c83d 2a79 9e3b 3e27 27bd 52f8 12be
000002f0: 3a13 a93d 8a67 fd3c a24d 21bd 129c 783d
00000300: ae45 d1bd e9f4 db3c 384b 923d cfcf 01be
00000310: b6ee 83bd 9502 253d 1c0e eebd 0fb1 e1bd
00000320: bc59 ac3d 9d2d 8fbd 30d5 3ebd 14bb 3a3d
00000330: 3605 593d 5359 7bbd 4076 083e f587 e8bd
00000340: ffb3 593d abd4 afbd bb2a 163e 0ec7 0bbe
00000350: beca 6fbd 13b5 44bc fd42 b8bc 7aac a93d
00000360: 3e16 563d 335e 2a3d 181e bc3d 04ab bbbd
00000370: e2c8 62bd cc25 b23d a488 9bbd d860 08be
00000380: 01a5 6cbc fd6a 35bb 3464 1d3d c2eb 453d
00000390: a7aa b33d d0ad ffbd 4c7e 1e3e d24f 69bc
000003a0: fb8f a43d fbe3 d73d 7214 09bd b0e5 9abc
000003b0: c745 26bd 181f 30bd e12b 82bd ff32 143d
000003c0: 46e5 a13c c4bc fa3c de73 ba3d 4245 cf3c
000003d0: bd8e 8c3c 491a ddbd 9a03 bcbd e8b6 18bd
000003e0: 88ed 4d3d 60b8 10be da44 d13c 4901 67bd
000003f0: ef91 693c e173 d9bd 43ec ca3d 3b8d 9c3c
-0.011035545 -0.019348696 0.04957022 -0.14424044 0.027513154 0.089646794 0.065315776 -0.00661467
-0.019253612 -0.021520797 0.040396515 -0.021139083 -0.045912504 0.010937207 -0.05789507 -0.031431366
-0.03029345 -0.13069798 0.0853315 0.048702516 0.08459269 0.030295152 -0.05358553 0.016230198
0.12435932 -0.018878767 0.07634299 -0.07921995 -0.018394992 0.12235912 0.06918327 0.049328353
0.067530476 -0.13794915 -0.1299758 -0.054462664 -0.008278444 -0.06599554 0.039587602 0.052173194
-0.0026850342 0.0715353 0.057653297 0.120473646 0.029378176 -0.026326595 -0.048917282 0.030690156
-0.07445112 -0.09006865 -0.13908693 -0.054526284 -0.061198648 0.05933556 0.10953261 -0.010493306
-0.039400827 -0.02167572 -0.03149278 0.039662424 0.07994391 -0.15304205 -0.05203649 -0.024843907
0.008860033 -0.047529865 0.013718087 -0.090431996 0.039208632 0.009081971 0.0073791724 -0.11896343
-0.09570992 0.008452933 -0.060018115 0.018012084 -0.015764343 -0.037548836 -0.02818425 -0.052476663
0.0013208522 0.039601043 0.05147002 -0.06752456 0.013655533 -0.14818515 0.026825823 -0.053172506
0.1169655 0.0496755 -0.054442093 -0.15886238 0.069855236 -0.060585756 -0.040775325 0.06396484
0.08160364 -0.04404002 -0.11715967 0.16449136 -0.025468944 -0.13233969 -0.0127724055 0.08713852
0.06402495 0.13166948 0.05512264 0.13919841 -0.12976065 -0.10805656 -0.05152847 -0.022611331
-0.018551646 -0.001635843 -0.040587 -0.008423313 0.07997347 -0.14617024 0.11262459 -0.1499433
-0.06459417 0.06511502 0.084204875 -0.05021486 0.1424429 -0.09709329 0.08111021 -0.03354774
-0.11071388 -0.14268638 -0.06079564 -0.11918928 0.0012024465 0.13957624 -0.13475479 -0.14478181
0.035406422 0.1197109 0.043996736 0.12932372 0.05619722 0.041533124 0.04530169 0.017454568
0.06255921 0.00448337 -0.054308835 0.01693706 0.12594396 -0.11105012 -0.1025401 -0.062400497
0.09795757 0.0154826995 0.009755213 0.032713234 -0.025450284 0.06499374 -0.015928572 -0.14168169
0.105604 0.060316492 -0.06697965 -0.064954646 0.10179246 0.020405553 0.12850165 -0.0025902903
0.0351353 -0.047886543 -0.034590572 0.12362662 -0.018522125 -0.14873773 -0.024999747 -0.039819367
-0.07571842 -0.10025399 -0.12356908 -0.0665869 0.090540335 0.012695148 0.0065964498 0.013216329
0.097807996 0.004836221 -0.04080891 -0.14352539 0.0825562 0.03093316 -0.039380677 0.060695715
-0.102183685 0.02685018 0.07143253 -0.12676929 -0.06442015 0.040285666 -0.11623785 -0.11020099
0.08415553 -0.06991122 -0.04659003 0.045588568 0.052983485 -0.061364483 0.13326359 -0.11354057
0.053150173 -0.08585485 0.14664738 -0.13650152 -0.05854296 -0.012006062 -0.02249288 0.082848504
0.052267306 0.04159374 0.091854274 -0.09163478 -0.055367358 0.086986154 -0.075944215 -0.13318193
-0.014443637 -0.0027682178 0.03842564 0.04832054 0.08772784 -0.12484324 0.15477866 -0.014240222
0.080352746 0.10541531 -0.033466764 -0.018908352 -0.04059389 -0.042998403 -0.063560255 0.036181446
0.019762646 0.030607589 0.09104131 0.02530158 0.017157907 -0.10796029 -0.091803744 -0.037283808
0.050275356 -0.14132833 0.025545526 -0.05639771 0.014255985 -0.10617805 0.099083446 0.019110313

lstm.weight_hh_l1 f4 [256, 64]
00000000: b9de 4a3d 9058 3cbd bfb8 f33d 384f 81bd
00000010: f4e1 f43d 6c1e b7bd 7bed d9bd e9b8 4c3d
00000020: 81d4 57bd cd9e 043e 2c2d 11bd 8352 ce3c
00000030: 16d7 67bc 3700 923d 7f29 ecbd 5aa5 4ebd
00000040: d639 b93d 1621 a1bd 9f4a 633d 7620 943d
00000050: 387b 88bb 1b07 8e3d 1e8f 5f3d 84b2 d1bc
00000060: 54b8 953d 8e6f 15bd a369 953d 2230 f73d
00000070: 1163 dabb d48b 80bb 0693 403d ea4d 8cbd
00000080: 45a9 1abd dffd 5c3d 0d69 623d 60bf 883c
00000090: 6531 b3bd e67b c63c 7f58 983d c48e 4d3b
000000a0: 307a 30bd 0ca7 fabd 2dc3 8abb 82db 1a3d
000000b0: e2eb fc3d 27bc fa3b 916b 7a3d 4eea 4a3d
000000c0: 0830 c0ba 3e61 ba3d 3735 7b3d eea1 5f3d
000000d0: 3fac a9bc 0ed3 94bd 23e9 5e3d 4b38 2f3d
000000e0: 55f8 f9bc 024b 823d 9285 013e e19a d33d
000000f0: caeb e9bd 3a80 a93c 2e7e cf3b cea2 3b3d
00000100: c5d0 0cbe 63e6 75bd 7367 143d c22b ad3d
00000110: 72f0 a43d 5354 8b3b bc20 f3bd abe1 333b
00000120: 162f 803c 36e8 b1bc 95e4 ccbd 1ccc 103d
00000130: 58d3 0cbe 31fe b2bd 8c9c 8b3d ad8f 14be
00000140: 8b64 143e e203 83bd db85 2c3e e5e0 6e3c
00000150: 281c 993d 294d 913d c279 10bd d298 d33d
00000160: ccf9 dfbd 87b2 07be 1520 1b3e 8876 483d
00000170: 443d ad3d 3729 ae3d 4eb2 82bd 165b 9dbb
00000180: 4164 16bd a19d c83d 6d2f 503d 220f 9dba
00000190: 05c0 863d 5da7 0db8 8907 d1bc 2794 cdbc
000001a0: 0a9e e7bd d205 ea3c 6785 bb3d a985 b43d
000001b0: 44f3 913d 73e5 cf3d 52e5 723d dc44 6bbc
000001c0: 5695 4cbc 7354 003e c7f2 3fbd 4f30 833d
000001d0: cc13 843c 55bc 3ebd 1c88 663d 2834 073e
000001e0: e331 59bc 9c1b bd3d 0c87 6ebc 9966 973b
000001f0: 38d6 c0bd 5234 0bbd 928d a1bc 2df0 fa3d
00000200: 244c 7e3d dca1 953d 7b94 83bd 7227 debd
00000210: 3c6b 093e 89a3 fb3c 8adc bcbd ef05 dfbb
00000220: d3c7 db3c 178a 0d3e 4560 a8bd ba85 b13c
00000230: dd8f dfbd 44d4 563d a218 863d 059e abbd
00000240: 25d0 9b3d a89e b6bc 765f b83d 4878 efbd
00000250: 12bb cdbd ee97 33bb 381e 1f3e 4ab9 9c3d
00000260: 1d9a 05be 73b8 1e3c 180b d03d 062d 3abc
00000270: 7349 64bd 1a06 b53d ccce fd3d 443d c5bd
00000280: f626 173e 1db8 4e3d 1a0d b1bd 626f 27bd
00000290: ec0e a5bd 7bf1 9abc 3d95 7dbd 74ee 07bb
000002a0: c4b6 81bd 61ac bdbd 3c87 b23d 1205 01bd
000002b0: 49bb 013e 5080 fd3d d8db 873b 3231 b8bc
000002c0: eb40 b7bd de63 403c 3b5f f4bc 3634 783d
000002d0: 71fc 8abd 4621 12bc 1ad9 1e3d b95b 703d
000002e0: b6ec 79bd 1b0b 52bd 2e7c 143e e995 9d3c
000002f0: d89a 98bd 06a9 11bd 4a9f b9ba 18a5 193e
00000300: 9b47 0d3c 7d32 a5bd 9201 da3c f6e0 25bd
00000310: 8f7e a8bd 1fc1 abbd 5535 8c3d d645 a2bb
00000320: 3518 a93d f7de 8e3d 101f 42bd 4116 90bc
00000330: a441 e3bb 4387 aabc 0ea6 26bc 74f7 f9bd
00000340: 2834 033e 0919 02be ff1a 573d 96d7 f4bd
00000350: 555d 193d 2ab2 923d 2c0a 4abd 545f 48bd
00000360: e72b 263d cadd 96bd fb74 3e3d 144d a2bb
00000370: 5a42 96bd cd4d 473d 664a 033c 305e 2d3d
00000380: b089 db3c 9d00 92bd 39ed f4bc e8fe 613d
00000390: caf2 853d 96de 973d 9e00 e83c 1130 1e3d
000003a0: 9fcc a1bd 7ed5 d2bd 5fc1 783d 8d8e d0bd
000003b0: ecce 863d 1107 d6bc 7afc 5f3c eb31 e5bc
000003c0: a3ad bc3d 5e7b 963c cfcd 913b 464d 80bc
000003d0: 42d1 e93c 259e a13c ef24 e4bd 15dc 2c3d
000003e0: c65b e33d 7c8a 5c3d 4ab3 2cbd 16d0 733d
000003f0: 6357 283d 8011 32bd ecf6 95bd da5a 3f3d
0.04952881 -0.045982897 0.11900472 -0.06313938 0.1195716 -0.089413494 -0.10640999 0.04998103
-0.052692894 0.12951203 -0.03544347 0.025185829 -0.014150402 0.07128947 -0.11531352 -0.05045066
0.090442345 -0.07867639 0.055491086 0.07232754 -0.0041650794 0.06934949 0.054579847 -0.025597818
0.073105484 -0.03648334 0.07295539 0.120697275 -0.0066646417 -0.003922919 0.047015212 -0.068507984
-0.037759084 0.053953048 0.055275965 0.016692817 -0.08749656 0.024229001 0.07438754 0.0031365613
-0.043085277 -0.12238893 -0.0042346925 0.037806995 0.123496786 0.007651824 0.06113774 0.049539857
-0.0014662752 0.09100579 0.061330047 0.054597788 -0.020712016 -0.07266818 0.054421555 0.042778295
-0.030513922 0.06361963 0.1264861 0.10332275 -0.11421926 0.020691026 0.0063321805 0.04580956
-0.13751514 -0.060034167 0.03623147 0.08455612 0.08053674 0.0042519956 -0.11871478 0.002744774
0.015647452 -0.021717172 -0.10004536 0.035350904 -0.13752496 -0.087398894 0.06816968 -0.14507933
0.14491479 -0.06397225 0.16847937 0.014579986 0.074760735 0.07094795 -0.035272367 0.103318825
-0.10936317 -0.13251697 0.15148957 0.048941165 0.08458951 0.08503955 -0.06381665 -0.004802118
-0.036716703 0.0979569 0.05082648 -0.0011982659 0.065795936 -3.377289e-05 -0.025516288 -0.025095059
-0.113094404 0.028567228 0.09156304 0.08814556 0.07126477 0.10151186 0.05930073 -0.014359679
-0.012486776 0.12532215 -0.04686239 0.064056985 0.016122721 -0.046566326 0.056282148 0.1320349
-0.013256523 0.09233782 -0.014558565 0.004620385 -0.09415859 -0.033985443 -0.019720826 0.12252841
0.062084332 0.07306263 -0.06424805 -0.10847367 0.13419813 0.030717628 -0.09221752 -0.0068061273
0.026828682 0.13822208 -0.08221487 0.021670211 -0.109161116 0.052448526 0.06547667 -0.08379749
0.0760806 -0.02229245 0.09002583 -0.11692864 -0.100454465 -0.002740379 0.15538871 0.076525286
-0.13047071 0.009687531 0.10158366 -0.0113632735 -0.05573411 0.088390544 0.12392959 -0.09630826
0.14760956 0.050468553 -0.08645077 -0.040877707 -0.08059487 -0.018913975 -0.061909903 -0.0020741494
-0.06333688 -0.09261394 0.087172 -0.031498976 0.126691 0.12377989 0.0041460805 -0.022484396
-0.08947929 0.01174256 -0.029830566 0.060596667 -0.067864306 -0.008919066 0.038781263 0.058681224
-0.06101676 -0.051280122 0.14500496 0.019236522 -0.07451409 -0.035561584 -0.0014161852 0.15004385
0.008623029 -0.080662705 0.026612077 -0.040497743 -0.08227264 -0.08386444 0.0684611 -0.0049521727
0.0825657 0.06976121 -0.047392905 -0.017588736 -0.006935315 -0.020816451 -0.010171426 -0.12205401
0.12812865 -0.12704863 0.05251598 -0.11955182 0.037442524 0.07162888 -0.049326107 -0.048919037
0.040569212 -0.07366522 0.04649828 -0.004953036 -0.07336874 0.04865818 0.008013343 0.042326152
0.026799053 -0.07129023 -0.029898273 0.05517474 0.06540449 0.07415502 0.028320607 0.03862006
-0.079003565 -0.10294627 0.060731288 -0.101834394 0.06582436 -0.026126416 0.013671035 -0.027977904
0.09212806 0.018369373 0.004449583 -0.015661847 0.028542165 0.01972873 -0.11139857 0.042202074
0.11101489 0.053843006 -0.04216317 0.059524618 0.041098963 -0.04347372 -0.07322487 0.046717502

lstm.bias_ih_l1 f4 [256]
00000000: 07c7 56bd 7fa5 86bd 2b43 653c 9ef1 2f3c
00000010: 32a3 9cbd 5da9 ddbc 00a7 6cbd 72d9 f03d
00000020: 27b2 46bc 624d 74bc 35c3 a5bd e215 953d
00000030: 5455 a4bb 6d5f d33d 40df 25bd e02a 65bd
00000040: ff19 9abd 358f a93d 249d c0bc c115 813d
00000050: 3841 21bd dd34 163e 9497 903d 3010 80bc
00000060: 46b4 9e3d e088 923c c735 44bd 31df 963d
00000070: 4f4d 1e3e 9f80 003e 61d4 eb3d d711 c23b
00000080: 32d6 0a3e 2c0d eabc 18cd 043e de9b 773d
00000090: d347 a13d f7ea 0d3e a1c2 b53c 254a 8fbd
000000a0: bbab bf3d e012 763d bb09 8b3d 67c3 243d
000000b0: 7a27 8d3c 4668 43bc 3d6d b13d 39f1 9ebd
000000c0: 2213 333d dce4 473d 9103 013c 6a27 1b3c
000000d0: a599 77bb b57b 8e3c 26cc 233e d7f9 dc3a
000000e0: e711 673d beef 76bc 7374 ea3d b491 94bd
000000f0: b642 55bc 41a9 d13d 5dc7 95bd 6dfb 1abd
00000100: a4d1 213e 4202 5ebb a88c 92bd 110b dd3d
00000110: 9674 fa3d e165 c33d 344d 0f3e f7de a2bc
00000120: 145d f8bd 60ff 1f3d 1276 e03d dac1 b1bd
00000130: 36d6 2a3d 25fe 083e a25e da3d 6cce 8f3d
00000140: 3ab8 33bb c376 cdbd de81 cb3d 13a7 96bd
00000150: 18f5 af3c 8bd3 f93d 56c3 97bd 8bab 8c3d
00000160: fb3c 183e 031f bd3d 570d a4bd 972b 0f3e
00000170: 0329 df3d 8d04 c6bd c95b 42bd 0e61 84bd
00000180: 0b0d 9a3b 1014 66bd f1b8 ba3c 001e 1d3d
00000190: 8245 313d df50 093e 7f86 963d 6f0f 1dbc
000001a0: 72fc f4bc b6d2 6abd 2d8f 0e3e 9489 ca3d
000001b0: e8f5 43bd c9b8 013e d859 c2bc 1fef 1fbc
000001c0: d60a 87bd d939 e83d 944e bc3d fed4 9dbb
000001d0: 2be2 8c3d 8f44 8e3d f501 2c3d 6136 8cbd
000001e0: 4273 47bd aa76 55bd d161 42bd 39b4 8cbc
000001f0: 39c4 9a3d 58b7 553d 1198 bf3d 23e4 363d
00000200: a91d 35bd 9670 913d 5ce0 0b3d 7a6d 113c
00000210: cce6 dc3d 73a6 23be fa74 01bb 0ae8 933c
00000220: cf1f ac3d 715d d43d 30ca 933d a12a 00be
00000230: a201 e0bd cbac 12bc c08d 85bd 2a4a 3bbd
00000240: f696 0e3d 8c3e 99ba 3469 c73d 0fa1 7e3c
00000250: 9b3c 0f3d dcf0 a33d 3a05 d93d 15a8 883d
00000260: be71 88bd fd28 19be 1c3b a93d 5401 94bd
00000270: fbba bc3d df1d 483d 8ae2 dd3c 4b87 f03c
00000280: a698 1d3e ad74 94bc 4710 793b 8898 debd
00000290: 8a57 eb3c a564 1e3e 30fa ce3d d0af b13d
000002a0: 9f63 02bd 6975 00bd 11ba 1b3e d753 313d
000002b0: b882 d63d bfa5 cabc 39dd 7c3d 18d6 1abd
000002c0: cc8a e3bd fd49 a5bd 52c4 b63d 7936 66bd
000002d0: 717f 223d 9082 f63d 437e 8abd 300d e43d
000002e0: 9539 123e 4dcb 0ebc 579d c33d 1809 003e
000002f0: c88c c0bd 30a1 fa3d 4922 e03d ee48 09bd
00000300: 818f a4bc 56e5 7a3d 40fa 83bd 232c 183e
00000310: 04f7 9f3d 0be4 073e 0a0f cb3b b74c a43c
00000320: 7e37 c8bd ee39 213e 1c88 d53c 3b6c b73d
00000330: 7f7d 1d3e e5d7 933d 9d63 b7bc 796b 9d3d
00000340: 2fe3 b13d bdf3 6a3d d781 e83d 5053 223e
00000350: 9f4c bf3d 93d6 093e 8575 853d 319e 4d3d
00000360: c4dc babc 6029 b73d eb37 073d c541 c5bc
00000370: 0017 e1bb 8410 1a3e e5a9 053e a848 3e3d
00000380: 7e8a 0bbd 6e50 373e a63f 813b d3a8 85bb
00000390: 905f 123e 8093 9f3d a527 d2bc 8672 e2bc
000003a0: 328e d23d 18ac f23c 40a2 cf3c 8912 463d
000003b0: 824c 3dbc 4b4b 4e3d e420 67bd 33c1 0e3d
000003c0: 5c7e 07bd 1cac be3d ca4c 72bd 8b5d ccbc
000003d0: ed41 ce3c bb8d a73d 2e77 693d 759c b73d
000003e0: 422b b73b a6ff 06be 952d c93c 73cc 023e
000003f0: 585d 43bc 033f f13d 1e44 44bd b824 2c3e
-0.0524359 -0.065745346 0.013993065 0.010738758 -0.076483145 -0.027058298 -0.05777645 0.117602244
-0.012127436 -0.014911028 -0.080938734 0.072795644 -0.0050150547 0.103209354 -0.04049611 -0.055949092
-0.075244896 0.08279268 -0.02351243 0.06302977 -0.039368838 0.14668603 0.07060161 -0.015632719
0.07749228 0.017887533 -0.04790285 0.07366789 0.15459178 0.12549065 0.115151174 0.005922537
0.13558272 -0.028570734 0.12968862 0.06045138 0.078750275 0.13859163 0.022187533 -0.06996564
0.09358927 0.060076594 0.06788965 0.040225413 0.017230738 -0.011926716 0.08663414 -0.07760853
0.04371942 0.04880224 0.007874385 0.009469846 -0.0037780788 0.017392972 0.15995845 0.0016859126
0.056413557 -0.015071807 0.11447992 -0.07254353 -0.013016393 0.10237361 -0.07313416 -0.037837435
0.15802628 -0.0033875857 -0.07155734 0.107931264 0.12229268 0.09540916 0.13994294 -0.019881709
-0.12127128 0.039061904 0.1096002 -0.086795524 0.041708194 0.13378198 0.10662581 0.07021794
-0.002742304 -0.100324176 0.099368796 -0.07356086 0.021479174 0.12198552 -0.07410304 0.06868657
0.14867012 0.09234431 -0.08010357 0.13981472 0.10896494 -0.09668837 -0.047450814 -0.06463824
0.004701262 -0.056171477 0.022793265 0.03835869 0.04327918 0.13409756 0.07349872 -0.009586199
-0.029905532 -0.057329856 0.13921805 0.09889522 -0.047841936 0.12668146 -0.023724481 -0.009761601
-0.06593864 0.113391586 0.09194675 -0.0048166504 0.068790756 0.0694667 0.041994054 -0.068463095
-0.048693903 -0.05211512 -0.047456566 -0.01717578 0.07556958 0.052176803 0.09355176 0.044651162
-0.04421774 0.07101552 0.034149513 0.008876199 0.107862085 -0.15981464 -0.0019753561 0.01805498
0.084045045 0.10369385 0.072162986 -0.12516262 -0.109378114 -0.00895233 -0.06521177 -0.045725025
0.034811936 -0.0011691614 0.09736863 0.015541329 0.034969907 0.08004925 0.105967 0.06672684
-0.066623196 -0.14957042 0.08263227 -0.07226816 0.09215351 0.048856612 0.027085561 0.029361388
0.15390262 -0.018122042 0.0038004087 -0.10868937 0.028728265 0.1546808 0.10106313 0.08676112
-0.031833287 -0.03136197 0.15207697 0.043292847 0.104741514 -0.024737237 0.061734412 -0.037801832
-0.11110458 -0.08070753 0.08924164 -0.056204293 0.03967232 0.120366216 -0.06762364 0.11135328
0.14279778 -0.008715463 0.095514946 0.12503469 -0.09401852 0.12237775 0.109440394 -0.033516817
-0.02008796 0.061253868 -0.06444216 0.14860587 0.07810786 0.13270585 0.006196861 0.020056112
-0.09776209 0.15744755 0.026065879 0.0895619 0.15379904 0.07218913 -0.022386367 0.076865144
0.0868591 0.057361353 0.1135289 0.15852094 0.09340786 0.1346076 0.06516556 0.05019969
-0.022810347 0.089434385 0.033012312 -0.024079213 -0.006869197 0.15045363 0.13053091 0.04645601
-0.034067623 0.17901775 0.003944355 -0.0040789633 0.14294267 0.07791805 -0.02565367 -0.0276425
0.10281028 0.029623076 0.025345922 0.04835752 -0.011553885 0.050364774 -0.05642785 0.034852218
-0.03307949 0.09310171 -0.059155263 -0.024946949 0.02517792 0.0818133 0.056998424 0.08965389
0.0055898735 -0.1318346 0.024557868 0.12773304 -0.01192411 0.11779597 -0.047916524 0.16810882

lstm.bias_hh_l1 f4 [256]
00000000: ef3c 63bc 34a7 2d3d 848a af3d d4ca cd3c
00000010: a2ca 99bd 401d 37bd fbf7 0a3e 75ac dabd
00000020: de27 a03d dac3 9ebd d4ff 64bd d3bc d8bb
00000030: 200e c5bc 9197 843d 1846 b8bd 8461 833b
00000040: e86e f03d 06c9 bfbd ee3a 6e3d e5c4 073e
00000050: 2932 9d3d 7b1b d63d 0e05 fb3c 5381 f53d
00000060: 0046 babc eda6 1ebc 87ce 1d3c 1e45 19bd
00000070: 99e7 db3a b3ad 06bc a43e 46bb e233 a73d
00000080: a6e9 0d3e 3ee8 c6bc b256 63bd 5f66 8ebc
00000090: 65ec 2d3c 77d6 a9bd 72e4 f4bc 1339 3bbc
000000a0: 3f61 8e3d 47f9 d43c cb22 953c 9350 7a3d
000000b0: 9177 033d 773f a9bd 5197 36bc 0972 cabc
000000c0: 88e2 c83d 24a6 76bc 45e3 fb3d 90ea 903d
000000d0: 4ba4 cc3d ed47 603c a7b8 513d 03cc 9c3d
000000e0: 5436 813d 2f88 f9bd ed6d f73d 55ed e23d
000000f0: 3c8e 80bc acce a63d 408d 123e 61a1 c9bc
00000100: 818f b53c 1f55 c7bb 3656 f93d 6702 ebbc
00000110: 44ff ea3d 1180 12bc 03e6 d33c c40e e93d
00000120: 638e a4bd 528f 133e 2edd a23d d5f6 0b3e
00000130: e159 133c 7183 8d3b 50de 963d 7616 67bd
00000140: dcab f83c 79c7 8bbd d2ef 28bd 3b84 1b3e
00000150: 3851 46bd a55f 643d e278 063e c41b 6abc
00000160: 8dcf 93bb d363 9dbd 3515 003e 1404 61bd
00000170: 0b9f d03d e5d0 fa3c f10e 77bc cd0a aabd
00000180: ab97 d23d 726f d93d 32d2 013e 1063 9a3d
00000190: e92d 873d 920c 483d c891 89bd ea92 07bc
000001a0: 748a 543b 3021 2a3e a976 33bd 5154 993d
000001b0: a2dd 623d 8fe4 a73d a312 ff3d 8edd b03d
000001c0: 817c af3d 18b3 03be b419 673d 2579 a53d
000001d0: 4ae9 d93c 05a5 c43d 37f1 88bc 3cc6 8c3d
000001e0: b6fd 483d 899e dabd 4010 633b 7fd5 313b
000001f0: 92af 0c3e c9e4 263e 5582 50bd 843d 8ebc
00000200: d88e 75bd 69de d63d 07fc 493d f834 883d
00000210: f96f 1d3e 6d64 a7bd 17c0 62bc 1312 af3d
00000220: 07b9 8f3d 74f1 083e 6580 81bd 8eff 6cbc
00000230: 5488 323d e672 8c3d 43fd 553d 48ec 153d
00000240: 6c4c 943c 7c7a ffbb a8f8 7a3d c528 e8bd
00000250: 3505 87bc 40f0 db3d 180f 863d a7dc 50bd
00000260: e084 9fbc a886 74bd abe4 07bd ecf0 073e
00000270: 088b c93d 6ad9 b5bc 510b a53d 0347 8e3c
00000280: 948d c73d aa1b 003e 8aea 773d 36de eabc
00000290: 6ca7 643d cc80 96bd 0009 ff3d b7f0 65bd
000002a0: ddfc 09be f285 25be 55bf 453d b44a debd
000002b0: fed7 b03d 5630 d63d b7ef 1fbe 9525 93bd
000002c0: 8af8 8ebd 9139 08bd 757a 353c c2e5 56bd
000002d0: 4f33 503d 6e13 243d 0875 0bbd db66 e23d
000002e0: 459a ae3d 13f2 373d 9a98 37bd 4b6e 33bd
000002f0: 31c7 8cbd 9c4a bb3d f385 853d 2bc7 e13d
00000300: 47e2 203d aa79 fa3d 6a54 033e 4d30 853c
00000310: 725e e93d 0092 7fbd 0b22 0a3e 2ca9 d53c
00000320: 095e 2b3d 777c 613d 37ae c43d 4a3f 2a3d
00000330: 5dda b23d d8aa 193e d415 f83d d6a4 293d
00000340: 83d8 b4ba 18a1 103d 2b40 7bbd 43c7 f03d
00000350: ae07 94bd 4855 40bd a6b7 ac3d 05c2 98bc
00000360: 4969 df3d 4577 17bb 96e6 193e 067e e93d
00000370: 4d9f 073c ce8e ea3d 5fda 3f3c 00b8 153e
00000380: a9b5 d33d cfd4 0c3e d9b5 9d3d 0a00 8dbd
00000390: 68d9 07bd d44d 7d3c 9064 92bc 2f12 003e
000003a0: 4924 aa3b 098f 34bd ed3d 2c3e 61be 23bd
000003b0: 3ea4 123e 93b7 9d3d d4a9 833c e13d 92bd
000003c0: 06b1 233e aeff 3d3d 6d40 363e 6f0e 923d
000003d0: ee27 293d 8f38 03bd bdef 3a3d 3f8c 193e
000003e0: d297 293e 746d ddbd c33e 223e 0ba9 933d
000003f0: 743c 1a3e bacb 71bd d054 06bd 5af6 983d
-0.013869508 0.042395785 0.08571342 0.02512113 -0.07509352 -0.04470563 0.1357116 -0.10677425
0.07820104 -0.077521995 -0.05590804 -0.0066143065 -0.024054587 0.064742215 -0.08997744 0.0040094275
0.11739904 -0.09364514 0.05816167 0.13258703 0.07675583 0.1045446 0.030642059 0.11987557
-0.022738457 -0.009683353 0.0096317595 -0.03741943 0.0016777396 -0.008220124 -0.003024974 0.08164193
0.13858661 -0.024280664 -0.0555026 -0.017382799 0.010615443 -0.08292859 -0.029894087 -0.011427182
0.06952142 0.025997771 0.018205067 0.061111998 0.03209645 -0.08264058 -0.011144475 -0.02471258
0.098088324 -0.015054259 0.122992076 0.07075989 0.09992274 0.013689023 0.05120149 0.076561
0.063091904 -0.12184178 0.120815136 0.11080424 -0.015692823 0.08144888 0.14311695 -0.024613084
0.022163155 -0.0060831453 0.121746466 -0.028687669 0.11474469 -0.008941666 0.025866514 0.113797694
-0.080349706 0.14410141 0.07952343 0.13668378 0.008993597 0.0043186476 0.073666215 -0.056417905
0.030355386 -0.06825156 -0.041244335 0.1518716 -0.0484173 0.055755276 0.1313205 -0.014288846
-0.004510826 -0.076850556 0.1250809 -0.05493553 0.10186585 0.030617187 -0.015079246 -0.08302841
0.102828346 0.1061696 0.1267784 0.07538426 0.066005535 0.048840113 -0.06717259 -0.008274773
0.0032431157 0.16614223 -0.043814335 0.07486785 0.055387147 0.08197891 0.124547265 0.08636008
0.08568669 -0.12861288 0.056420997 0.08079747 0.026600499 0.096017875 -0.016716583 0.06873748
0.049070083 -0.106747694 0.0034647137 0.002713531 0.1373885 0.16298212 -0.050905544 -0.017363317
-0.05995068 0.1049164 0.049312618 0.06650728 0.15374745 -0.081734516 -0.013839743 0.08548369
0.07017713 0.13373357 -0.063233174 -0.014465226 0.043587044 0.06857853 0.052243482 0.03660229
0.018102847 -0.0077965837 0.061272293 -0.11335901 -0.016481975 0.107391834 0.06545848 -0.05099168
-0.01947254 -0.05969873 -0.03317706 0.13275498 0.09840971 -0.022198398 0.08058799 0.017367845
0.09743801 0.12510553 0.06052641 -0.028670412 0.05582373 -0.07348785 0.124528885 -0.056137767
-0.13475366 -0.16164377 0.04827817 -0.10854092 0.08634947 0.10458438 -0.15618788 -0.071849026
-0.06980999 -0.033258025 0.011076559 -0.052465208 0.05083018 0.040057592 -0.034047157 0.110547744
0.08525518 0.044908594 -0.044823267 -0.043806355 -0.0687393 0.0914509 0.065196894 0.110243164
0.039278295 0.12230237 0.1282517 0.016258383 0.11394967 -0.062395096 0.13489549 0.026081644
0.041837726 0.05505034 0.09603541 0.041564263 0.08733056 0.15006578 0.121135384 0.041416965
-0.0013797436 0.03530988 -0.061340492 0.11756756 -0.07228027 -0.04695633 0.08433466 -0.018647203
0.109087534 -0.0023111862 0.15029368 0.1140099 0.008277726 0.11453019 0.011709779 0.14620972
0.10337383 0.13753055 0.077007 -0.06884773 -0.03316632 0.01546045 -0.017870218 0.12506936
0.005192314 -0.04408172 0.16820498 -0.03997648 0.14320466 0.0770103 0.016072191 -0.07140709
0.15985498 0.046386413 0.17798014 0.07131659 0.041297846 -0.03203636 0.04563879 0.14994906
0.16561821 -0.10811892 0.15844254 0.07209977 0.15062124 -0.05903218 -0.032795727 0.07468863
